best.pth (torch, 363394 bytes, 38 tensors)

blocks.0.layers.0.weight f4 [64, 6, 3]
-0.13330854 -0.15186095 -0.07553695 0.10912674 -0.41407046 -0.47908303 -0.28552368 -0.2568574
-0.007692608 0.17306615 0.1302953 0.13623877 -0.0047408394 -0.05110788 -0.26814672 0.03249337
0.022142628 -0.06244804 0.029262356 -0.09469021 0.122776724 -0.18469408 0.08568107 0.03391076
-0.30474472 -0.23768973 -0.085595615 0.39205816 0.11961344 -0.11503528 0.16383927 -0.17414263
-0.38128614 0.11678323 -0.16042681 -0.24811786 -0.28193703 -0.23584773 0.16072229 0.049403362
0.007951018 0.2825446 0.24044327 0.20711604 0.1228659 0.018314524 -0.24888305 -0.29742554
0.05929101 -0.21557172 -0.09329944 0.20057319 -0.20040153 -0.32564354 -0.05207002 -0.047906023
0.33375174 0.43808508 0.69773704 0.08057403 -0.06579601 0.008109911 0.045758847 0.17827126
0.036278673 -0.15751311 0.086125806 -0.003473862 0.23341751 0.276213 -0.08237424 -0.16455254
0.014966745 0.0032949888 0.4281897 0.19977714 -0.09640007 -0.12926425 -0.23227085 -0.19230653
0.01897695 0.0024552646 -0.007406939 0.03185595 -0.3174829 -0.11900663 -0.2996748 -0.011955914
-0.26354837 -0.21652724 -0.138569 0.013748004 -0.1494622 0.17188819 0.124859415 0.10583832
0.14231391 -0.23438703 -0.026326038 0.21768974 -0.07119525 -0.24575765 0.24731427 -0.28709012
0.094366595 0.26005864 -0.21859539 -0.14332013 0.1570659 0.07506066 -0.16269179 -0.06734726
0.44331032 -0.044602346 0.219016 0.04562026 0.039373755 0.047838096 0.15467122 0.122177444
-0.3273018 -0.001302537 0.21560192 -0.20808528 -0.011376855 0.21668576 -0.3228401 -0.18710682
-0.5720491 0.12088624 0.020747976 0.24279562 0.13034913 0.15172234 -0.004758211 0.058221366
-0.05515548 0.0522829 0.34251142 -0.03862099 0.17058854 0.080013506 0.09187771 0.094323106
0.06908921 -0.038974933 -0.13362749 -0.32974213 -0.25330025 0.041400332 0.25107333 -0.15198229
-0.31922162 -0.14870241 0.33249038 0.17095391 -0.05267889 0.32263646 0.1115334 -0.079507716
0.2250183 -0.047187347 -0.22975363 0.22595648 -0.20609453 -0.25180367 -0.08761958 -0.19981484
0.28393817 -0.12686947 0.2407039 -0.36887845 0.12766957 0.042681657 0.0024979492 -0.24752519
0.14284983 -0.175114 -0.29922497 0.27128223 -0.12531362 0.2952004 0.45161664 0.20032914
0.26784506 -0.107213855 -0.35060897 -0.2830517 -0.10863035 -0.06598719 0.0736882 -0.28805718
0.1324203 -0.07238909 -0.25289202 -0.1748934 -0.12837492 -0.0027920278 -0.022930067 -0.20645052
-0.28535444 -0.37844366 -0.021148982 -0.3501786 0.061587304 -0.052598983 0.30623835 0.21664795
0.0424657 -0.062504746 -0.010252237 -0.02200836 -0.023791749 0.19432008 0.090097755 -0.025872204
-0.36427453 0.17253006 0.47711542 -0.07788687 -0.1262477 0.2954741 -0.049262572 -0.07340577
-0.13468999 0.09179525 0.012436289 0.040819667 -0.10727097 -0.21802442 -0.21607544 0.08432391
-0.12935644 0.03565866 0.09922878 0.00887745 -0.10242786 -0.0019430243 -0.28889197 0.04057842
0.14136088 0.2777271 -0.28645903 0.0768445 0.3881127 0.3255512 -0.04758458 0.02416243
0.08537763 -0.17378797 0.3045356 0.3964914 -0.07368583 -0.08194323 0.094016746 0.17951004
00000000: 0982 08be 7081 1bbe 1eb3 9abd d77d df3d
00000010: 0b01 d4be 5f4a f5be 2930 92be d082 83be
00000020: 4612 fcbb 4138 313e 226c 053e 2d82 0b3e
00000030: 0b59 9bbb 7f56 51bd 874a 89be c517 053d
00000040: 7564 b53c 84c9 7fbd 9cb7 ef3c f1ec c1bd
00000050: 5d72 fb3d 7220 3dbe 8f79 af3d 02e6 0a3d
00000060: 8007 9cbe f064 73be c14c afbd d9bb c83e
00000070: e4f7 f43d 9e97 ebbd 7bc5 273e 7252 32be
00000080: f037 c3be 0c2c ef3d ed46 24be 9c12 7ebe
00000090: 0d5a 90be 1182 71be 6294 243e 2e5b 4a3d
000000a0: fd44 023c b0a9 903e c336 763e 3a16 543e
000000b0: 1ea1 fb3d 5708 963c 33db 7ebe 2948 98be
000000c0: 21db 723d d5be 5cbe c713 bfbd 0f63 4d3e
000000d0: 0f36 4dbe c0ba a6be 6047 55bd 1b39 44bd
000000e0: 82e1 aa3e b04c e03e e59e 323f ff03 a53d
000000f0: 0fc0 86bd 6fdf 043c a16d 3b3d be8c 363e
00000100: f298 143d 1e4b 21be ba62 b03d bca9 63bb
00000110: 0005 6f3e ca6b 8d3e d3b3 a8bd 7680 28be
00000120: 1437 753c bdf0 573b ae3b db3e 6192 4c3e
00000130: 666d c5bd d95d 04be 69d8 6dbe 01ec 44be
00000140: 8c75 9b3c 81e8 203b e8b5 f2bb 627b 023d
00000150: 1e8d a2be bfb9 f3bd fa6e 99be bde2 43bc
00000160: d0ef 86be 51b9 5dbe 08e5 0dbe 4f3f 613c
00000170: 9e0c 19be 7503 303e 4bb6 ff3d c3c1 d83d
00000180: bdba 113e 2703 70be b4a9 d7bc 0fea 5e3e
00000190: d1ce 91bd e5a7 7bbe f43f 7d3e 7afd 92be
000001a0: 4643 c13d 6826 853e 78d7 5fbe 83c2 12be
000001b0: e2d5 203e 67b9 993d ad98 26be 5ced 89bd
000001c0: 92f9 e23e f3b0 36bd bb45 603e 4fdc 3a3d
000001d0: 6046 213d e1f1 433d 2262 1e3e 2b38 fa3d
000001e0: 1a94 a7be e4b9 aaba c0c6 5c3e 4f14 55be
000001f0: fd65 3abc dfe2 5d3e 4c4b a5be ee98 3fbe
00000200: cf71 12bf 3493 f73d a9f7 a93c 6a9f 783e
00000210: 3e7a 053e 1a5d 1b3e c4ea 9bbb 8779 6e3d
00000220: b6ea 61bd 9826 563d a85d af3e 0b31 1ebd
00000230: c3ae 2e3e 1fde a33d 612a bc3d 792c c13d
00000240: a57e 8d3d 2ea4 1fbd a5d5 08be f6d3 a8be
00000250: 92b0 81be 6593 293d af8c 803e 3fa1 1bbe
00000260: 0471 a3be 7245 18be 2e3c aa3e 8b0e 2f3e
00000270: d2c5 57bd 9b30 a53e a06b e43d f1d4 a2bd
00000280: 326b 663e 8547 41bd 8944 6bbe 2361 673e
00000290: 720a 53be 69ec 80be e571 b3bd 439c 4cbe
000002a0: 5860 913e 12ea 01be 157b 763e a3dd bcbe
000002b0: d0bb 023e f6d2 2e3d a2b4 233b 3e77 7dbe
000002c0: 3a47 123e 1651 33be 0434 99be 81e5 8a3e
000002d0: 3752 00be 8224 973e 4c3a e73e 1523 4d3e
000002e0: fd22 893e f092 dbbd 0583 b3be 27ec 90be
000002f0: 9779 debd 4b24 87bd d7e9 963d 3b7c 93be
00000300: 3099 073e bb40 94bd 107b 81be 4117 33be
00000310: b774 03be 74fa 36bb d6d7 bbbc c467 53be
00000320: fa19 92be 5ec3 c1be a140 adbc 9c4a b3be
00000330: f842 7c3d 0872 57bd 46cb 9c3e f6d8 5d3e
00000340: 84f0 2d3d 7d02 80bd 00f9 27bc e04a b4bc
00000350: eae6 c2bc d8fb 463e 2c85 b83d f2f1 d3bc
00000360: 3182 babe b8ab 303e 7948 f43e 2783 9fbd
00000370: 1447 01be 6248 973e 8dc7 49bd c455 96bd
00000380: 2cec 09be 26ff bb3d 94c1 4b3c 8632 273d
00000390: e2b0 dbbd cb41 5fbe e142 5dbe 04b2 ac3d
000003a0: 0476 04be d10e 123d 7538 cb3d b972 113c
000003b0: b3c5 d1bd 14ad feba a6e9 93be 8f35 263d
000003c0: e8c0 103e 3f32 8e3e c2aa 92be a660 9d3d
000003d0: b5b6 c63e a6ae a63e 0ce8 42bd 4af0 c53c
000003e0: 78da ae3d 79f5 31be 17ec 9b3e ec00 cb3e
000003f0: 99e8 96bd dad1 a7bd da8b c03d 7bd1 373e

blocks.0.layers.0.bias f4 [64]
-0.08601648 -0.076514505 -0.14973779 -0.08451722 -0.09832824 -0.28436542 0.07642658 0.033638813
-0.13592166 0.11773693 0.08266096 -0.0638281 0.097282946 -0.08021828 -0.31930566 0.09506454
0.027489016 -0.0008608704 -0.050130308 -0.39192876 0.26751444 -0.042592943 0.2854591 0.13345192
-0.10036481 -0.24162552 -0.27776492 -0.25317678 0.24844334 -0.17810734 -0.060224973 -0.21571657
-0.34877476 -0.15571001 0.26579246 -0.14841971 -0.07851741 0.31224167 -0.1795528 -0.3532369
0.20981348 -0.34785348 -0.21807903 -0.07847396 0.026639845 -0.107989214 -0.2049567 0.05304627
-0.12183442 0.01617817 0.1604206 -0.30853036 -0.1447265 0.5292308 0.10233804 0.013082549
-0.4801562 -0.27663568 0.0439676 -0.12484085 -0.15274574 -0.4500588 -0.25583845 -0.2966976
00000000: 6929 b0bd a3b3 9cbd dd54 19be 5d17 adbd
00000010: 5160 c9bd 5898 91be 8a85 9c3d dac8 093d
00000020: 0c2f 0bbe 0f20 f13d 264a a93d 4fb8 82bd
00000030: 483c c73d 7b49 a4bd 087c a3be 33b1 c23d
00000040: a530 e13c 09ac 61ba 7055 4dbd e3aa c8be
00000050: a7f7 883e f075 2ebd b227 923e 9fa7 083e
00000060: 118c cdbd ae6c 77be 3437 8ebe 63a0 81be
00000070: ee67 7e3e c561 36be 76ae 76bd cee4 5cbe
00000080: 9b92 b2be 7272 1fbe f315 883e 56fb 17be
00000090: bccd a0bd 24de 9f3e b0dc 37be 78db b4be
000000a0: 58d9 563e da19 b2be 1c50 5fbe f5b6 a0bd
000000b0: ce3b da3c 7329 ddbd 2be0 51be 0c47 593d
000000c0: 5384 f9bd 1588 843c 4c45 243e b1f7 9dbe
000000d0: 2f33 14be ab7b 073f 9b96 d13d 3058 563c
000000e0: 09d7 f5be 31a3 8dbe 5f17 343d 8fac ffbd
000000f0: 6169 1cbe 1b6e e6be 42fd 82be bfe8 97be

blocks.0.layers.3.weight f4 [64]
0.87770665 0.8493027 0.9498561 0.8456655 1.1139737 0.7599216 1.1710397 1.124133
0.8607202 0.69134647 0.9589701 0.59818643 0.4794033 0.9246297 0.9354946 0.79491645
1.399027 0.8349024 1.0995026 0.9447276 1.1809705 1.2028081 0.99466926 0.9313073
0.91663563 0.8699636 0.91043705 0.8407868 1.1463894 0.7270652 1.0122918 0.83040196
1.032924 1.0782291 1.0579175 0.6667974 1.1924356 1.062986 0.8453039 0.8850671
1.338366 0.98043334 1.1539481 0.7383549 0.9103955 0.96830547 1.066269 1.1926668
1.1609465 0.973016 0.863575 0.9925739 0.79892457 0.97442013 1.1469594 0.9772286
1.1287411 1.168515 0.66627544 0.8508718 0.8903039 1.1190442 0.8756194 1.0291022
00000000: 62b1 603f e76b 593f c529 733f 897d 583f
00000010: b196 8e3f 398a 423f a1e4 953f 97e3 8f3f
00000020: 2958 5c3f 15fc 303f 117f 753f bf22 193f
00000030: 5974 f53e 88b4 6c3f 937c 6f3f a57f 4b3f
00000040: 5113 b33f 2abc 553f 80bc 8c3f abd9 713f
00000050: 0b2a 973f 9ef5 993f a5a2 7e3f 286a 6e3f
00000060: a2a8 6a3f efb5 5e3f 6712 693f ce3d 573f
00000070: e3bc 923f f220 3a3f c792 813f 3995 543f
00000080: db36 843f 6903 8a3f d769 873f 3cb3 2a3f
00000090: bba1 983f ed0f 883f d665 583f c293 623f
000000a0: 944f ab3f aefd 7a3f 92b4 933f d404 3d3f
000000b0: ae0f 693f dee2 773f 817b 883f 4ea9 983f
000000c0: e599 943f 9417 793f 4013 5d3f 5319 7e3f
000000d0: 5286 4c3f 9973 793f 91cf 923f a72b 7a3f
000000e0: 977a 903f e691 953f 0791 2a3f bcd2 593f
000000f0: f5ea 633f d73c 8f3f 9828 603f 9fb9 833f

blocks.0.layers.3.bias f4 [64]
0.042798474 0.35244915 0.24418607 0.07970575 0.37982732 0.5041047 -0.23609492 0.29604024
0.27668753 0.10399674 0.3944201 0.28849986 0.07088801 0.20678961 0.08367004 0.19769517
0.10404334 0.31879357 0.20727843 0.20054488 0.35315496 0.16728704 -0.09498821 0.18885669
0.30281278 0.06393955 0.19098985 0.12860115 0.1801563 0.29906848 0.14404143 0.3879117
0.59390265 0.6178749 -0.06369439 0.4621754 0.11259195 0.37270936 0.2497352 0.101166375
0.24618845 0.15257089 0.1342798 0.33333856 0.29369524 0.50675625 0.12890898 0.3385292
0.11904842 0.19195062 0.4181987 0.346692 0.446503 0.40943196 0.25687116 0.44247425
0.16000918 0.358756 0.24519227 0.33401054 -0.00010530649 0.43368474 0.5220943 0.25559232
00000000: 744d 2f3d 3774 b43e ea0b 7a3e c53c a33d
00000010: ba78 c23e 010d 013f dec2 71be 9692 973e
00000020: fda9 8d3e 3efc d43d 6ef1 c93e 41b6 933e
00000030: bc2d 913d a8c0 533e 335b ab3d 9a70 4a3e
00000040: ad14 d53d e938 a33e cc40 543e a35b 4d3e
00000050: bad0 b43e 4b4d 2b3e 2e89 c2bd a663 413e
00000060: 470a 9b3e bdf2 823d d892 433e 05b0 033e
00000070: e57a 383e 811f 993e 997f 133e 5d9c c63e
00000080: 010a 183f 0d2d 1e3f 3472 82bd 41a2 ec3e
00000090: 9c96 e63d c3d3 be3e 96ba 7f3e 5130 cf3d
000000a0: d318 7c3e 8b3b 1c3e a580 093e 5aab aa3e
000000b0: 395f 963e c7ba 013f b700 043e b353 ad3e
000000c0: a8cf f33d b48e 443e 241e d63e 9d81 b13e
000000d0: 0b9c e43e 11a1 d13e 9e84 833e fc8b e23e
000000e0: 72d9 233e deae b73e af13 7b3e 6e03 ab3e
000000f0: fed7 dcb8 ed0b de3e f9a7 053f ffdc 823e

blocks.0.layers.3.running_mean f4 [64]
0.32506165 0.2701464 0.51869833 0.4808094 0.47674978 0.16060595 0.30662248 0.5278804
0.41493657 0.4297248 0.6081731 0.4272155 0.37035015 0.5913527 1.1066675 0.48260248
0.3648774 0.5149289 0.388629 0.27261832 0.49826849 0.3670883 0.52555156 0.65791404
0.58111566 0.73763955 0.3009856 0.2293814 0.5288879 0.51250356 0.30388623 0.2442345
0.22287631 0.24529688 0.5817278 0.7289862 0.29780042 0.66307884 0.57886654 0.28344056
0.56763846 0.30775666 0.18165772 0.29055083 0.6278576 0.38214666 0.61952543 0.2882911
0.33828747 0.39973155 0.7425835 0.3511655 0.36461917 0.74460584 0.35089177 0.54046845
0.107747495 0.13426088 0.5104363 0.38732705 0.59843844 0.27591363 0.059823953 0.21979508
00000000: 7b6e a63e a150 8a3e 6ac9 043f a62c f63e
00000010: 8c18 f43e e375 243e 9ffd 9c3e 2b23 073f
00000020: 9172 d43e e404 dc3e 3bb1 1b3f fdbb da3e
00000030: 899e bd3e e462 173f 48a7 8d3f ac17 f73e
00000040: 36d1 ba3e 61d2 033f 61fa c63e a194 8b3e
00000050: 0c1d ff3e fff2 bb3e 8c8a 063f 0e6d 283f
00000060: ffc3 143f f2d5 3c3f c91a 9a3e f5e2 6a3e
00000070: 3365 073f 6f33 033f fa96 9b3e 9c18 7a3e
00000080: b039 643e 1b2f 7b3e 1dec 143f d79e 3a3f
00000090: 4c79 983e 89bf 293f 9930 143f 1f1f 913e
000000a0: c150 113f 4892 9d3e 7b04 3a3e 14c3 943e
000000b0: 47bb 203f baa8 c33e 3899 1e3f e49a 933e
000000c0: 0434 ad3e 9da9 cc3e f419 3e3f f7cb b33e
000000d0: 5daf ba3e 7d9e 3e3f 16a8 b33e 245c 0a3f
000000e0: b8aa dc3d af7b 093e f4ab 023f bb4f c63e
000000f0: 4333 193f 8d44 8d3e f609 753d f611 613e

blocks.0.layers.3.running_var f4 [64]
0.29814512 0.14474422 0.5042047 0.5125845 0.3264579 0.08703354 0.13302669 0.56233174
0.3973567 0.30856135 0.47169822 0.44218177 0.15470394 0.7687872 3.2314916 0.36335012
0.19632274 0.5170596 0.24960914 0.31574216 0.21544218 0.22516927 0.25191808 0.568572
0.6460226 1.5995419 0.31058407 0.18328668 0.35301846 0.5626653 0.19902085 0.1378059
0.13867815 0.17484647 0.28511208 0.86451274 0.21306446 0.5591249 0.8094393 0.21811818
0.3308825 0.32377896 0.10014261 0.24639174 0.7047064 0.2919866 0.8880124 0.123879075
0.18178143 0.24107035 0.7374706 0.4074158 0.27852362 0.33213478 0.14861569 0.5580638
0.060566552 0.06797311 0.384707 0.3756921 0.8226117 0.2806947 0.025198584 0.17173247
00000000: 7aa6 983e d437 143e 8f13 013f bd38 033f
00000010: 7d25 a73e a43e b23d 2638 083e f9f4 0f3f
00000020: 5672 cb3e c1fb 9d3e 6e82 f13e a665 e23e
00000030: b66a 1e3e 3dcf 443f c2d0 4e40 0709 ba3e
00000040: d408 493e 055e 043f 8a99 7f3e f5a8 a13e
00000050: e09c 5c3e c692 663e 68fb 803e ef8d 113f
00000060: bd61 253f cabd cc3f e004 9f3e 81af 3b3e
00000070: d6be b43e d50a 103f 1fcc 4b3e fd1c 0d3e
00000080: a501 0e3e f40a 333e 36fa 913e b550 5d3f
00000090: 922d 5a3e cf22 0f3f 6a37 4f3f 5f5a 5f3e
000000a0: 6e69 a93e 5bc6 a53e 9217 cd3d 1e4e 7c3e
000000b0: a367 343f 457f 953e c854 633f 50b4 fd3d
000000c0: e924 3a3e 25db 763e e0ca 3c3f ce98 d03e
000000d0: a69a 8e3e 920d aa3e b62e 183e 45dd 0e3f
000000e0: a214 783d 7c35 8b3d 51f8 c43e b75a c03e
000000f0: ae96 523f 37b7 8f3e 436d ce3c a3da 2f3e

blocks.1.layers.0.weight f4 [128, 64, 3]
-0.09095762 -0.10242219 0.027497217 -0.16673763 -0.29502642 -0.2402822 -0.028665494 -0.030954435
-0.29308218 0.13855791 -0.067057155 -0.15604547 0.01900661 -0.095891945 -0.24201144 -0.18909094
-0.05173766 -0.05250501 0.052805047 0.13047536 0.2606759 -0.027211323 -0.07048934 0.00033426582
-0.093366794 0.10994169 0.09211622 0.19856969 -0.0059602885 -0.024120266 0.072582304 -0.15820621
-0.3827172 0.014650587 0.12607151 0.09939073 -0.10180314 -0.12350222 -0.11455104 0.05941486
0.20671915 0.115786314 -0.039010003 -0.06431652 0.037821464 0.06271035 0.067669146 -0.24736282
0.1855359 0.20801942 -0.011628194 -0.16868605 -0.100701146 0.2111131 0.072513 0.1679309
-0.10182693 -0.04549522 0.12619291 -0.05171431 0.070213914 -0.11556219 -0.53798646 0.22153142
0.12823851 -0.011040973 0.16290526 0.06273961 0.28492218 0.033125475 -0.13476321 -0.38661075
0.22972807 0.16303791 -0.11301279 -0.08495883 0.008592251 0.058189023 0.12394996 0.049216814
0.094114766 0.10166656 -0.023330702 -0.31145936 0.015860863 -0.19471917 -0.33019087 0.18918923
0.0854798 -0.17784531 0.29375854 0.01815979 -0.16285105 -0.060540527 -0.29261303 -0.38270724
-0.10807123 -0.097703114 -0.38501704 -0.122007586 -0.14433908 0.09545604 0.22980022 0.21283375
0.33609968 0.10218727 0.14883246 -0.03794512 0.15281077 -0.13042149 0.021856952 0.043977857
-0.12115779 0.25457016 -0.1401027 0.055412006 0.058925122 0.08686269 0.05287013 -0.2149287
4.4808644e-07 -0.08369113 -0.41632465 -0.1420866 -0.07332129 0.08589615 0.14348136 -0.1936686
-0.18160576 -0.25011718 0.044590708 -0.11934631 0.18164311 -0.059189826 -0.19062416 0.1963435
-0.1644477 -0.03575463 -0.061861288 0.10825182 0.105828255 0.048199784 -0.05217921 -0.062098376
0.016048765 0.020714514 -0.23010899 0.024885733 0.16398454 0.039881844 -0.059941303 0.0022790802
-0.20268048 0.08151078 0.042657197 0.030553263 0.1271256 0.003547094 -0.3607076 -0.041074373
-0.07004727 -0.49173313 -0.04594683 0.070355825 0.0913826 -0.039123576 -0.12133938 -0.26271567
-0.04288897 0.1840955 -0.023031935 0.00928206 -0.041046076 -0.14164886 -0.0020852261 -0.054320548
-0.3148065 -0.029284269 -0.096317254 -0.2989867 -0.048634034 0.11850737 0.12740886 -0.023290748
0.024209693 -0.07429738 -0.05062531 0.044830777 0.0036387986 0.1319009 0.04949428 -0.20749259
0.31133342 -0.09317302 -0.3116858 0.050089676 -0.09508295 -0.02577939 0.15368012 0.19572428
0.14183016 0.106983826 -0.10023339 0.27581707 0.057982147 0.054570206 -0.19205162 -0.2548293
-0.069818735 0.012580167 -0.27571627 0.14203657 0.21506287 -0.02202457 -0.032569006 -0.36677444
0.11196309 0.22500971 -0.14233622 -0.07833366 0.16380584 -0.21044582 0.045154586 -0.21737796
-0.0951219 0.14459763 0.0073443074 -0.3562428 -0.023725865 -0.042910147 -0.048308067 0.1621932
0.12994336 -0.16423763 0.19862886 -0.04036345 -0.1761843 0.062307592 0.18858412 -0.01295397
-0.021911167 -0.07471325 0.12661876 -0.23058577 -0.068249054 0.06523549 -0.05473671 -0.011574778
0.16515443 0.5925923 0.03479871 -0.14575635 0.11287226 -0.07236984 0.015446912 -0.058560662
00000000: fd47 babd bac2 d1bd d841 e13c 45bd 2abe
00000010: b40d 97be 890c 76be e6d3 eabc 2894 fdbc
00000020: de0e 96be 20e2 0d3e 4355 89bd 62ca 1fbe
00000030: c0b3 9b3c ff62 c4bd d9d1 77be 0ea1 41be
00000040: deea 53bd 7e0f 57bd 1b4a 583d 559b 053e
00000050: 5077 853e 48ea debc b75c 90bd 6640 af39
00000060: 1737 bfbd 1c29 e13d 6ea7 bc3d da55 4b3e
00000070: 864e c3bb dd97 c5bc 08a6 943d cf00 22be
00000080: 82f3 c3be 0409 703c e418 013e 5e8d cb3d
00000090: 2a7e d0bd bbee fcbd bc99 eabd ff5c 733d
000000a0: 2fae 533e 6021 ed3d f4c8 1fbd 61b8 83bd
000000b0: aeea 1a3d 496e 803d 1f96 8a3d ae4c 7dbe
000000c0: 1ffd 3d3e 0b03 553e 2e84 3ebc 09bc 2cbe
000000d0: 673c cebd 082e 583e b281 943d 14f6 2b3e
000000e0: a38a d0bd 3259 3abd b738 013e 62d2 53bd
000000f0: 50cc 8f3d dfab ecbd 7bb9 09bf 22d9 623e
00000100: f550 033e 32e5 34bc a3d0 263e a07d 803d
00000110: 52e1 913e 94ae 073d 5eff 09be d8f1 c5be
00000120: d63d 6b3e 69f3 263e 4073 e7bd e5fe adbd
00000130: 83c6 0c3c 9d57 6e3d 7ad9 fd3d 9297 493d
00000140: 3ebf c03d 8f36 d03d 0720 bfbc 9a77 9fbe
00000150: a4ee 813c 7664 47be c70e a9be d2ba 413e
00000160: 0910 af3d 151d 36be 8567 963e d7c3 943c
00000170: 6dc2 26be 58f9 77bd 60d1 95be 34f2 c3be
00000180: 7354 ddbd 9218 c8bd f420 c5be 1ddf f9bd
00000190: a0cd 13be 757e c33d c050 6b3e 17f1 593e
000001a0: 4215 ac3e 8f47 d13d 8967 183e 586c 1bbd
000001b0: 6d7a 1c3e 368d 05be 5a0d b33c 2022 343d
000001c0: 9321 f8bd 0557 823e 1577 0fbe b3f7 623d
000001d0: 785b 713d 11e5 b13d 598e 583d 4516 5cbe
000001e0: 8890 f034 4166 abbd 8128 d5be 267f 11be
000001f0: 7929 96bd 52ea af3d c7ec 123e 1051 46be
00000200: dcf6 39be 5c0f 80be bfa4 363d d76b f4bd
00000210: a700 3a3e 0871 72bd fb32 43be 450e 493e
00000220: fa64 28be 7273 12bd 4362 7dbd 21b3 dd3d
00000230: 7cbc d83d 236d 453d deb9 55bd de5a 7ebd
00000240: b378 833c 7cb1 a93c b1a1 6bbe 2add cb3c
00000250: 90eb 273e 255b 233d 0385 75bd 9f5c 153b
00000260: 798b 4fbe 20ef a63d 50b9 2e3d d64a fa3c
00000270: 372d 023e 5d76 683b abae b8be 9a3d 28bd
00000280: f174 8fbd 72c4 fbbe be32 3cbd b716 903d
00000290: cd26 bb3d 0b40 20bd c880 f8bd ab82 86be
000002a0: 58ac 2fbd 8883 3c3e 78ad bcbc c813 183c
000002b0: ee1f 28bd 660c 11be 4aa8 08bb 397f 5ebd
000002c0: 512e a1be 90e5 efbc fb41 c5bd c914 99be
000002d0: 7b34 47bd feb3 f23d 7877 023e 3dcc bebc
000002e0: 6853 c63c 3a29 98bd 7c5c 4fbd 7aa0 373d
000002f0: e978 6e3b 0811 073e 84ba 4a3d f078 54be
00000300: 1867 9f3e 7fd1 bebd 4895 9fbe d52a 4d3d
00000310: daba c2bd 4d2f d3bc 525e 1d3e f26b 483e
00000320: ed3b 113e 561a db3d 2a47 cdbd e537 8d3e
00000330: b07e 6d3d 0285 5f3d 2ea9 44be fc78 82be
00000340: 20fd 8ebd 0b1d 4e3c af2a 8dbe 0972 113e
00000350: 7139 5c3e df6c b4bc 1467 05bd dcc9 bbbe
00000360: e84c e53d f268 663e 96c0 11be 666d a0bd
00000370: b8bc 273e 1c7f 57be 04f4 383d 5498 5ebe
00000380: 45cf c2bd 6711 143e 84a8 f03b 7565 b6be
00000390: bf5c c2bc 8dc2 2fbd aede 45bd f915 263e
000003a0: df0f 053e e92d 28be 5d65 4b3e 2554 25bd
000003b0: a869 34be 3f36 7f3d 321c 413e e33c 54bc
000003c0: 0c7f b3bc 4303 99bd 59a8 013e ad1e 6cbe
000003d0: 29c6 8bbd 2f9a 853d 9a33 60bd 23a4 3dbc
000003e0: 3e1e 293e 21b4 173f 1889 0e3d 2741 15be
000003f0: 9229 e73d a436 94bd 0b15 7d3c 4edd 6fbd

blocks.1.layers.0.bias f4 [128]
-0.11544714 -0.28299987 -0.0006090812 -0.10315082 -0.09038798 -0.036369987 -0.00842069 -0.020978974
0.09459437 -0.012605124 -0.44729558 -0.10701833 -0.12430507 0.07883601 -0.0977159 -0.033216435
0.20193215 -0.29747558 -0.010823684 -0.24780585 -0.22555956 0.12888879 -0.55008346 -0.4840272
-0.28558517 0.032274336 -0.3977921 -0.06458772 -0.24279031 -0.28229213 -0.029704096 0.16292167
-0.3126328 -0.30241728 -0.10370857 -0.24954562 -0.10695555 -0.0017309565 -0.08173283 0.16301331
-0.051580675 0.0979715 0.034200966 0.13168399 0.01538724 -0.08147941 0.2600661 -0.2728976
-0.017664788 0.09135198 0.040735062 -0.14688449 0.01873794 0.14602935 -0.11786932 -0.08427228
0.11584317 -0.21921706 0.164797 -0.036596112 -0.0008419192 -0.25381857 0.0059144553 -0.22396961
-0.29233998 -0.15117896 -0.073702365 -0.15578908 -0.30031988 -0.16548757 -0.17198007 0.06784017
-0.18778862 0.055815157 -0.089773946 -0.38679424 -0.2145218 -0.18206164 -0.18536267 -0.35977152
0.005629756 -0.2681882 -0.09546211 0.11669309 -0.24019694 -0.12443188 -0.2247805 -0.039708555
-0.34495577 -0.22969596 0.055709567 -0.064168364 -0.21942103 -0.035730485 0.20265852 -0.17239644
0.28152177 -0.27243522 -0.19189367 -0.012238732 0.14978814 0.0456105 -0.32115465 -0.13838953
-0.31756365 -0.16496877 -0.32681248 -0.15018284 -0.11971834 -0.078769654 -0.086754136 -0.10723504
-0.06842766 -0.11508743 -0.011948189 0.11619722 0.01871979 -0.16873468 -0.22015801 -0.29510218
0.005050933 -0.16399352 -0.01013967 -0.19518614 -0.21889128 -0.026129887 -0.28541514 -0.11463333
00000000: 8d6f ecbd 5ce5 90be bfaa 1fba bd40 d3bd
00000010: 551d b9bd b2f8 14bd eff6 09bc 19dc abbc
00000020: b1ba c13d b985 4ebc ed03 e5be 6d2c dbbd
00000030: a893 febd c674 a13d 461f c8bd f50d 08bd
00000040: 4dc7 4e3e b84e 98be d255 31bc d1c0 7dbe
00000050: 16f9 66be 6cfb 033e 45d2 0cbf 6ad2 f7be
00000060: 3838 92be 1832 043d 68ab cbbe 9146 84bd
00000070: 069e 78be 9888 90be 0156 f3bc f0d4 263e
00000080: 6811 a0be 70d6 9abe 2965 d4bd e388 7fbe
00000090: 830b dbbd 43e1 e2ba 8b63 a7bd f6ec 263e
000000a0: 4246 53bd 48a5 c83d 5016 0c3d 2bd8 063e
000000b0: c31a 7c3c adde a6bd 6227 853e 3cb9 8bbe
000000c0: bfb5 90bc bf16 bb3d cfd9 263d e368 16be
000000d0: 4f80 993c b888 153e 7865 f1bd f296 acbd
000000e0: 2f3f ed3d 707a 60be 8bc0 283e cee5 15bd
000000f0: 3eb4 5cba 82f4 81be 0cce c13b 4a58 65be
00000100: 96ad 95be a8ce 1abe 44f1 96bd 2c87 1fbe
00000110: 87c3 99be 9375 29be 8b1b 30be c9ef 8a3d
00000120: a94b 40be 6f9e 643d 67db b7bd e509 c6be
00000130: 9aab 5bbe 5e6e 3abe b6cf 3dbe f933 b8be
00000140: d179 b83b f74f 89be a481 c3bd c9fc ee3d
00000150: 30f6 75be 24d6 febd dc2c 66be 70a5 22bd
00000160: 0b9e b0be 6b35 6bbe b72f 643d b46a 83bd
00000170: e8af 60be 215a 12bd b785 4f3e b188 30be
00000180: 9f23 903e a17c 8bbe c67f 44be f684 48bc
00000190: 1062 193e 13d2 3a3d 626e a4be fcb5 0dbe
000001a0: b497 a2be 93ed 28be f753 a7be 88c9 19be
000001b0: e42e f5bd fc51 a1bd 27ac b1bd 0b9e dbbd
000001c0: cd23 8cbd f5b2 ebbd 56c2 43bc cff8 ed3d
000001d0: 3f5a 993c c9c8 2cbe 1a71 61be a217 97be
000001e0: 4c82 a53b ebed 27be dc20 26bc e0de 47be
000001f0: 0925 60be 580e d6bc ef21 92be e1c4 eabd

blocks.1.layers.3.weight f4 [128]
0.8433727 0.93127424 0.8757633 0.96984506 1.0267984 0.79529285 0.7282946 1.2051475
0.9058518 0.5385811 0.83292645 0.97877127 0.73208725 0.8416417 1.0811096 0.96016765
0.9323417 1.0057856 1.2686737 0.85062635 1.0903625 1.0350441 1.1804892 0.6526126
1.3274916 0.71115786 1.2026753 0.968167 0.90371895 1.0610459 0.7989503 1.0007644
1.2407333 1.1947658 1.1764017 0.9631497 0.4973904 1.0142597 1.1153866 0.76887894
1.166063 0.84442097 0.65974796 1.0671158 0.73740274 0.6819083 0.76565933 0.6871412
0.98580545 0.8368045 1.0032886 1.2465172 1.0258638 0.9999033 0.72989213 0.910981
0.8833969 1.017104 0.7710332 1.2145047 1.0925375 1.2156528 0.90441775 0.87839097
0.9425805 0.9762562 1.1310122 1.1236753 0.9877465 0.914343 0.7595786 1.0020398
0.75324047 1.014882 0.5206993 1.003678 0.7837506 1.081159 1.0962297 1.0314617
0.9595586 0.60972935 0.8908078 1.0495894 0.96706074 0.88360524 1.069227 0.78841347
0.95348275 1.0731394 1.2090132 1.0106256 0.92738 0.95150316 1.0772164 0.77270323
1.1224592 1.1243366 0.7424236 1.3564055 1.0272416 1.0381851 0.90036386 1.1196251
0.9660874 0.8435927 1.2041523 1.3404559 0.6957981 1.3598801 0.9804414 1.1656212
1.1101857 0.8962646 1.2755452 0.7792259 1.0759908 0.995532 0.78201616 0.6283001
1.1773969 0.87498516 1.1192179 1.0488107 1.1828301 0.7192275 1.1855109 0.87111825
00000000: 46e7 573f fd67 6e3f 0632 603f c447 783f
00000010: 216e 833f 5098 4b3f 8471 3a3f 4642 9a3f
00000020: e7e5 673f 73e0 093f ab3a 553f c190 7a3f
00000030: 126a 3b3f d575 573f cd61 8a3f 8ccd 753f
00000040: f2ad 6e3f 95bd 803f e663 a23f a6c2 593f
00000050: 0091 8b3f 537c 843f 451a 973f 9f11 273f
00000060: 3feb a93f 710e 363f 44f1 993f cbd9 773f
00000070: 205a 673f 5ad0 873f 0288 4c3f 0c19 803f
00000080: 59d0 9e3f 16ee 983f 5594 963f fb90 763f
00000090: f4a9 fe3e 43d3 813f fdc4 8e3f 40d5 443f
000000a0: 8d41 953f f92b 583f 3ee5 283f 4097 883f
000000b0: 6dc6 3c3f 8b91 2e3f 4002 443f 7ce8 2f3f
000000c0: bf5d 7c3f d238 563f c36b 803f e08d 9f3f
000000d0: 814f 833f aaf9 7f3f 36da 3a3f 0d36 693f
000000e0: 4d26 623f 7730 823f 6f62 453f e474 9b3f
000000f0: 45d8 8b3f 839a 9b3f ec87 673f 3bde 603f
00000100: f54c 713f edeb 793f 02c5 903f 98d4 8f3f
00000110: f4dc 7c3f 6212 6a3f be73 423f d742 803f
00000120: 5ed4 403f a7e7 813f 8d4c 053f 8578 803f
00000130: e1a3 483f 6b63 8a3f 4151 8c3f f006 843f
00000140: a2a5 753f 3917 1c3f fb0b 643f f258 863f
00000150: 4b91 773f f433 623f 6edc 883f 77d5 493f
00000160: 7217 743f a25c 893f f2c0 9a3f 2e5c 813f
00000170: c768 6d3f b695 733f 3ae2 893f e1cf 453f
00000180: beac 8f3f 43ea 8f3f 790f 3e3f b29e ad3f
00000190: a77c 833f 40e3 843f 3f7e 663f e04f 8f3f
000001a0: 8151 773f b1f5 573f aa21 9a3f 0f94 ab3f
000001b0: d31f 323f 8d10 ae3f 35fe 7a3f 1333 953f
000001c0: 911a 8e3f 9971 653f 1145 a33f 597b 473f
000001d0: 11ba 893f 2fdb 7e3f 3632 483f 46d8 203f
000001e0: f1b4 963f 07ff 5f3f 8842 8f3f 6e3f 863f
000001f0: fa66 973f 4b1f 383f d2be 973f 9b01 5f3f

blocks.1.layers.3.bias f4 [128]
0.029291097 -0.071986996 0.06564583 0.061983187 0.37236708 -0.22140652 0.0152205145 -0.114107504
0.05663255 0.30909267 -0.04786777 0.14952686 0.050007492 -0.08021623 0.13183774 0.15014787
0.017724827 0.22278728 0.0900829 -0.06468492 -0.11687358 -0.032913134 0.10892554 0.07319099
-0.12640506 -0.06958801 0.1775438 0.22454679 0.0009817771 -0.052408673 0.027620034 -0.13994086
0.18322958 -0.16794139 0.016987205 -0.04236273 -0.002702019 0.02991272 -0.057729978 0.12457341
-0.043202866 -0.059079975 0.050441477 0.017444326 -0.07938592 0.12801526 -0.12782967 -0.04817838
0.15103947 0.058375902 -0.17074698 -0.019134399 -0.056562446 0.04802666 0.06740285 0.0509222
-0.023077598 0.2166321 -0.049978744 -0.10216038 -0.03495182 -0.24460225 -0.0824767 -0.05780548
-0.0150308795 0.13780476 0.012369489 0.15073967 0.1904744 -0.13179293 0.09571665 0.3719813
-0.18454836 -0.1741886 0.085530445 0.19730057 -0.10003573 0.0015113349 0.08431327 0.074404866
0.079489134 0.17899162 0.08595248 0.16344942 0.0015362096 -0.15638672 0.26476333 0.12834008
-0.08735405 0.017039176 -0.009148971 -0.076616436 0.14354603 -0.0462828 0.015032284 0.035160385
0.14024095 0.024060009 0.08648551 -0.120047666 -0.02563549 0.098017745 -0.10398752 0.016788509
0.10873194 0.10521819 -0.06972483 -0.12706508 -0.0008817815 0.14926173 0.24058537 0.24326101
-0.00042764834 0.3000963 -0.12870963 0.09843696 0.2958164 0.11576383 0.14168005 -0.061110206
0.33528733 -0.060050067 0.105498254 -0.18763162 0.20269577 -0.005111951 -0.07130885 -0.0100033125
00000000: e2f3 ef3c eb6d 93bd 5271 863d 15e2 7d3d
00000010: e6a6 be3e 64b8 62be 775f 793c 32b1 e9bd
00000020: 88f7 673d 6541 9e3e ff10 44bd 921d 193e
00000030: a8d4 4c3d 6848 a4bd 7900 073e 5dc0 193e
00000040: a833 913c 5922 643e 627d b83d 8779 84bd
00000050: 6a5b efbd eccf 06bd 5a14 df3d 28e5 953d
00000060: 5470 01be 2984 8ebd 0bce 353e 98ef 653e
00000070: f9ae 803a 7aaa 56bd 6943 e23c a84c 0fbe
00000080: 89a0 3b3e d4f8 2bbe c028 8b3c 8b84 2dbd
00000090: 5b14 31bb 850b f53c 4576 6cbd 5820 ff3d
000000a0: 7df5 30bd d8fd 71bd b99b 4e3d 67e7 8e3c
000000b0: 1695 a2bd 6f16 033e c8e5 02be b156 45bd
000000c0: 17aa 1a3e 921b 6f3d 4cd8 2ebe bebf 9cbc
000000d0: 06ae 67bd 9ab7 443d 810a 8a3d cc93 503d
000000e0: 3b0d bdbc ced4 5d3e 83b6 4cbd 7639 d1bd
000000f0: a429 0fbd 0379 7abe 8be9 a8bd 70c5 6cbd
00000100: 1444 76bc b11c 0d3e 66a9 4a3c 805b 1a3e
00000110: b90b 433e baf4 06be 1707 c43d 5574 be3e
00000120: 3ffa 3cbe 7f5e 32be 962a af3d 2909 4a3e
00000130: 88df ccbd fc17 c63a 70ac ac3d 9461 983d
00000140: 33cb a23d 9449 373e db07 b03d 495f 273e
00000150: a45a c93a d723 20be 0f8f 873e 956b 033e
00000160: aee6 b2bd be95 8b3c 91e5 15bc 14e9 9cbd
00000170: bbfd 123e 0993 3dbd f849 763c 5604 103d
00000180: 539b 0f3e 7f19 c53c 511f b13d 8ddb f5bd
00000190: 8501 d2bc 87bd c83d 69f7 d4bd 0e88 893c
000001a0: daae de3d a27c d73d e4cb 8ebd 591d 02be
000001b0: 5b27 67ba 11d8 183e 035c 763e 6a19 793e
000001c0: fd35 e0b9 39a6 993e 75cc 03be 5199 c93d
000001d0: 3f75 973e 9615 ed3d 9314 113e b24e 7abd
000001e0: c8aa ab3e 0ff7 75bd 780f d83d 8122 40be
000001f0: 7b8f 4f3e 2782 a7bb 600a 92bd efe4 23bc

blocks.1.layers.3.running_mean f4 [128]
1.2772774 0.90870994 2.99851 1.38391 1.8593107 2.9005525 2.7955506 1.4877646
2.7865117 3.0687668 3.4083958 0.7493995 2.5633657 3.1403513 1.1499629 1.1934112
3.0521784 0.66923445 0.8904579 3.4064064 1.495925 2.0350394 0.74067223 3.9113095
1.7710886 2.087084 0.7021987 1.5377386 2.0838218 2.2019231 2.5613577 2.2534049
0.25785574 1.4033006 1.7364057 2.5164485 3.6247942 0.9234687 2.4639964 1.1442972
2.4355547 5.112005 2.7138696 1.3927009 2.3891292 3.0748186 1.0506383 2.3874056
2.031504 2.090762 1.0826749 1.8800753 3.5904343 1.7170482 1.7018255 2.6330073
1.6941952 1.0077025 2.4949412 2.1146305 1.6588681 0.7512094 2.6752486 1.2919924
2.5190966 1.9061759 1.2308718 1.1657282 2.1426349 2.119459 3.3635619 1.147645
3.394154 2.8242059 3.59725 2.9777122 3.0423536 0.708314 1.2595227 1.6543447
3.5496695 2.745844 1.0647231 1.2552856 3.5426817 1.7507977 0.8317088 0.7979992
1.7015508 2.428108 2.0867782 0.9172004 1.7344664 2.5136085 3.0409331 2.5452569
1.5646908 1.1825949 1.800491 2.0968294 2.492071 2.2947426 1.8212222 0.7191746
1.2812113 2.2984874 1.0643842 0.93122214 3.5518656 1.0056379 2.4354973 0.366297
0.9880436 2.453045 1.9162259 5.005918 1.2632049 1.2625551 2.2196236 1.0404538
0.8704149 2.3858714 1.2029477 0.6368925 1.3180783 2.9780402 1.2257447 2.9379246
00000000: d37d a33f 37a1 683f 96e7 3f40 f623 b13f
00000010: e5fd ed3f a7a2 3940 4dea 3240 126f be3f
00000020: 3556 3240 ad66 4440 2823 5a40 a5d8 3f3f
00000030: 2f0e 2440 84fb 4840 fc31 933f b3c1 983f
00000040: e456 4340 f352 2b3f 0df5 633f 9002 5a40
00000050: 787a bf3f 163e 0240 b29c 3d3f e552 7a40
00000060: 08b3 e23f c992 0540 4bc3 333f 9ed4 c43f
00000070: 565d 0540 4fec 0c40 49ed 2340 c937 1040
00000080: ab05 843e 5b9f b33f 8b42 de3f 7e0d 2140
00000090: a1fc 6740 7268 6c3f 1eb2 1d40 5578 923f
000000a0: 21e0 1b40 8c95 a340 0ab0 2d40 0644 b23f
000000b0: 7ee7 1840 d4c9 4440 517b 863f 41cb 1840
000000c0: 2904 0240 0bcf 0540 1795 8a3f 4fa6 f03f
000000d0: adc9 6540 3cc8 db3f 6bd5 d93f 3183 2840
000000e0: 63db d83f 65fc 803f 1ead 1f40 1b56 0740
000000f0: ca55 d43f 424f 403f 4637 2b40 0260 a53f
00000100: e138 2140 92fd f33f 358d 9d3f 9536 953f
00000110: ee20 0940 37a5 0740 9944 5740 08e6 923f
00000120: d239 5940 cabf 3440 5839 6640 d692 3e40
00000130: ecb5 4240 1154 353f 0a38 a13f 91c1 d33f
00000140: c92d 6340 e8bb 2f40 d948 883f 33ad a03f
00000150: 4cbb 6240 241a e03f deea 543f ad49 4c3f
00000160: 6bcc d93f 1f66 1b40 c68d 0540 a5cd 6a3f
00000170: ff02 de3f f6de 2040 a69e 4240 7de5 2240
00000180: ca47 c83f 455f 973f 7d76 e63f 7432 0640
00000190: 177e 1f40 10dd 1240 cf1d e93f d41b 383f
000001a0: bbfe a33f 6b1a 1340 be3d 883f 9364 6e3f
000001b0: c451 6340 beb8 803f 30df 1b40 488b bb3e
000001c0: 6df0 7c3f b0fe 1c40 e446 f53f 7b30 a040
000001d0: b3b0 a13f 689b a13f 500e 0e40 972d 853f
000001e0: 83d3 5e3f 1eb2 1840 31fa 993f 630b 233f
000001f0: cab6 a83f 3698 3e40 34e5 9c3f f506 3c40

blocks.1.layers.3.running_var f4 [128]
4.0457926 3.0170186 11.454777 3.9927933 8.078509 11.818447 17.378242 4.747225
17.69124 25.721815 34.50105 1.7303629 19.504625 17.298634 3.377257 2.8085399
8.292411 2.2386317 2.098111 15.470517 6.826253 4.5231233 2.7130506 40.304817
5.9112864 7.3900585 1.5103134 4.0029163 8.869667 12.064935 9.9892235 7.8239303
0.46387103 4.2558885 3.9623497 8.794349 16.479956 2.802876 15.152175 3.5059812
7.257934 27.322775 18.002464 4.1708145 10.040282 8.407957 2.9213371 20.618113
8.2374115 5.134205 2.9758255 5.8014593 13.235635 5.319834 6.738944 10.996714
4.0803146 3.6715193 6.678932 7.4500613 4.944598 2.4051325 13.463495 3.656819
20.445688 5.550441 3.3411624 3.9394002 6.3908143 9.869365 27.452229 2.9021688
26.01528 10.914712 14.854726 15.288483 13.879142 1.9974658 2.5746593 7.333819
21.095644 17.787584 2.941414 2.3362696 16.23446 6.100182 2.052674 2.4897344
7.673729 10.058389 6.707332 2.4951549 5.8432517 14.09247 14.023057 7.6811147
4.6474147 3.5600169 8.95405 5.7915072 5.8373866 7.0022016 9.514524 1.8504938
4.300538 12.009484 3.6002336 2.728669 15.8935995 2.5158663 8.542141 0.7828375
3.0017076 16.860205 4.1099916 34.06916 4.175138 4.5710154 13.121638 4.4715447
1.9666044 9.923211 2.6534758 1.6348628 5.066787 20.754757 4.6181517 15.286476
00000000: 2277 8140 d516 4140 c446 3741 ed89 7f40
00000010: 9341 0141 5c18 3d41 a406 8b41 44e9 9740
00000020: a987 8d41 47c6 cd41 1301 0a42 887c dd3f
00000030: 7909 9c41 9a63 8a41 fb24 5840 1ebf 3340
00000040: b7ad 0441 be45 0f40 7347 0640 3d87 7741
00000050: aa70 da40 6dbd 9040 9fa2 2d40 2238 2142
00000060: 4229 bd40 5c7b ec40 f351 c13f e417 8040
00000070: 28ea 0d41 f909 4141 dcd3 1f41 a35d fa40
00000080: 8180 ed3e 3d30 8840 2397 7d40 a7b5 0c41
00000090: f3d6 8341 5262 3340 4f6f 7241 ff61 6040
000000a0: ff40 e840 0b95 da41 0c05 9041 5077 8540
000000b0: ffa4 2041 fe86 0641 30f7 3a40 e5f1 a441
000000c0: 70cc 0341 684b a440 ed73 3e40 8ea5 b940
000000d0: 29c5 5341 153c aa40 6ea5 d740 8af2 2f41
000000e0: f091 8240 2cfa 6a40 d0b9 d540 e766 ee40
000000f0: 263a 9e40 b1ed 1940 7a6a 5741 5309 6a40
00000100: c590 a341 369d b140 9bd5 5540 221f 7c40
00000110: 8d81 cc40 ebe8 1d41 2a9e db41 22bd 3940
00000120: 4b1f d041 a9a2 2e41 f5ac 6d41 a09d 7441
00000130: f710 5e41 f6ac ff3f 38c7 2440 a5ae ea40
00000140: e1c3 a841 f94c 8e41 2140 3c40 7185 1540
00000150: 2de0 8141 b134 c340 035f 0340 cf57 1f40
00000160: 308f f540 29ef 2041 77a2 d640 9eb0 1f40
00000170: ebfb ba40 c27a 6141 715e 6041 b1cb f540
00000180: 9fb7 9440 51d7 6340 ca43 0f41 0754 b940
00000190: dfcb ba40 0912 e040 7e3b 1841 fbdc ec3f
000001a0: 029e 8940 d926 4041 3a6a 6640 83a2 2e40
000001b0: 2f4c 7e41 f403 2140 9cac 0841 0a68 483f
000001c0: fa1b 4040 b3e1 8641 0d85 8340 d246 0842
000001d0: bb9a 8540 c245 9240 3bf2 5141 e516 8f40
000001e0: b1b9 fb3f 79c5 1e41 8cd2 2940 2f43 d13f
000001f0: 1e23 a240 be09 a641 e6c7 9340 6895 7441

layers.1.weight f4 [128, 384]
0.20411392 -0.074441716 0.014514602 -0.0913104 0.0040234826 0.2481175 0.06536131 -0.071897715
0.02012657 -0.080851935 -0.17659526 0.37456834 -0.43038812 -0.027012188 -0.23280743 0.055775065
-0.0030737228 0.06579652 -0.009517008 0.068137266 0.07231571 -0.19032262 -0.16579035 -0.32689714
-0.24863197 0.00041644208 -0.09926472 -0.1707803 0.01654467 -0.077161886 -0.12873937 0.16098914
0.06322814 0.037434928 0.20861879 0.037398588 -0.06385548 0.05743694 0.060485926 -0.021538269
-0.028927507 -0.10062096 -0.47833252 -0.4152984 -0.15365122 0.1575787 -0.06383504 -0.024289586
0.07623961 0.021441258 -0.049054302 0.09056463 0.20230097 -0.19436292 -0.055355385 -0.14663167
-0.19876851 0.15385513 0.07664583 0.07644311 0.08968635 -0.13861375 -0.29858977 -0.1420115
-0.09252284 -0.008809145 -0.0018943783 0.21100946 0.056278523 -0.11701124 -0.04426152 -0.021374127
0.0568754 0.27391946 0.09377459 0.11164871 0.19577405 -0.03499424 0.10140004 -0.13166074
-0.2845392 0.035275515 -0.28632742 -0.08203937 -0.07956957 0.025059184 0.28601354 -0.14845254
0.04555275 -0.07151387 -0.09366403 0.15344779 -0.15474474 0.16059986 0.06606059 0.13657147
0.109899506 -0.14475392 -0.24303085 -0.24266283 -0.12273472 0.062014353 -0.05588258 0.027495531
0.314484 -0.061467655 0.060816407 0.010567789 -0.20765378 -0.20672703 -0.16659571 0.013446669
0.24484147 -0.05756866 0.006760478 -0.37274572 -0.16275126 -0.26979196 0.027550533 -0.024017572
-0.12383351 -0.1527644 -0.060067732 0.000945215 -0.13189866 0.04707068 -0.12578139 0.10050001
0.13265835 0.025880536 0.029157229 -0.12656477 -0.10246125 0.20018615 0.2444983 0.053823974
-0.05952334 0.099524446 0.08434252 0.09524001 0.0066270162 -0.087754704 0.18838184 0.08964704
-0.32368243 0.0795356 -0.23577964 0.05284553 0.16558684 0.13220508 0.013582934 0.2086046
0.2747643 0.048700787 0.040634003 0.1226789 0.1587026 0.07008789 -0.14994548 -0.068455994
0.10583705 -0.1715426 0.042652756 -0.08013293 0.27348512 -0.2059126 0.12029106 0.17816792
0.018212974 -0.022830116 0.06343585 0.09688674 0.28142694 -0.07406979 0.16819173 0.2210635
0.18421623 0.21393351 0.035935417 -0.14328049 0.0022040938 0.3105529 0.1061487 0.014817019
0.17948349 0.07468741 -0.15614347 -0.11557135 -0.06309061 -0.026882958 0.0075756763 -0.13151422
-0.2592564 0.0911787 0.08253517 0.10465885 -0.13278411 -0.103251845 -0.035515524 -0.091519766
-0.18466899 0.15337756 -0.1831363 -0.1381479 -0.0029137123 -0.21795286 0.12350501 -0.0069180545
-0.24766074 0.11998849 -0.027273824 0.04401106 0.089625575 -0.14158177 -0.1713229 -0.078382835
-0.15695071 0.03151832 0.18454958 0.18943019 0.08299649 0.0750295 -0.15966466 -0.12811089
-0.0068158796 -0.06420595 0.13574062 -0.07778737 -0.17682777 -0.12372836 -0.013520945 -0.084518716
0.042698793 0.23286164 -0.11606052 -0.3246129 0.09596574 -0.16518855 -0.08262593 -0.04690128
-0.15819395 -0.14862643 -0.06232033 -0.28339896 -0.2243346 -0.18278514 -0.002385654 0.044367652
0.050954595 0.19574387 0.13680108 0.021809865 -0.15988597 0.12057323 0.27799988 -0.12839614
00000000: 3d03 513e e674 98bd a7ce 6d3c f200 bbbd
00000010: 6bd7 833b 8412 7e3e 27dc 853d 1c3f 93bd
00000020: 7ae0 a43c b395 a5bd 63d5 34be 6cc7 bf3e
00000030: d55b dcbe aa48 ddbc 1265 6ebe 6574 643d
00000040: 8370 49bb 53c0 863d 3aed 1bbc 8d8b 8b3d
00000050: 421a 943d efe3 42be f2c4 29be 105f a7be
00000060: 6199 7ebe e955 da39 4d4b cbbd 08e1 2ebe
00000070: b088 873c 0d07 9ebd 41d4 03be 56da 243e
00000080: c17d 813d 5e55 193d 2aa0 553e 432f 193d
00000090: a9c6 82bd ff42 6b3d 17c0 773d 0671 b0bc
000000a0: 61f9 ecbc 5d12 cebd 00e8 f4be fea1 d4be
000000b0: bf56 1dbe 505c 213e f2bb 82bd f4fa c6bc
000000c0: 8323 9c3d 94a5 af3c 2aed 48bd f379 b93d
000000d0: fc27 4f3e 1307 47be 54bc 62bd 9d26 16be
000000e0: f989 4bbe 338c 1d3e 7df8 9c3d 358e 9c3d
000000f0: 7aad b73d c3f0 0dbe c2e0 98be 766b 11be
00000100: 9d7c bdbd 3b54 10bc ca4c f8ba dd12 583e
00000110: 4f84 663d 97a3 efbd 914b 35bd cb18 afbc
00000120: 2ef6 683d 2c3f 8c3e e40c c03d 14a8 e43d
00000130: fe78 483e 1f56 0fbd d3aa cf3d 13d2 06be
00000140: 1faf 91be 0f7d 103d 8299 92be 4204 a8bd
00000150: 5ff5 a2bd eb48 cd3c 5e70 923e f103 18be
00000160: 8595 3a3d dd75 92bd edd2 bfbd 6b21 1d3e
00000170: 6875 1ebe 4a74 243e c64a 873d 64d9 0b3e
00000180: fe12 e13d 5f3a 14be 14dd 78be 9b7c 78be
00000190: 575c fbbd c302 7e3d 22e5 64bd 4f3e e13c
000001a0: 0c04 a13e 82c5 7bbd a01a 793d 8524 2d3c
000001b0: 31a3 54be 40b0 53be 1198 2abe 6b4f 5c3c
000001c0: b9b7 7a3e 1dcd 6bbd 0087 dd3b 87d8 bebe
000001d0: 44a8 26be 2c22 8abe a8b1 e13c 80c0 c4bc
000001e0: 6c9c fdbd 456e 1cbe 9509 76bd 4ec8 773a
000001f0: 7110 07be 2fcd 403d d6cc 00be f3d2 cd3d
00000200: 97d7 073e 6b03 d43c 24db ee3c 329a 01be
00000210: 34d7 d1bd 99fd 4c3e c35d 7a3e 8776 5c3d
00000220: bfce 73bd 79d3 cb3d c5bb ac3d 320d c33d
00000230: 7127 d93b bdb8 b3bd 2be7 403e de98 b73d
00000240: b4b9 a5be 90e3 a23d 3870 71be 8e74 583d
00000250: 998f 293e c560 073e f48a 5e3c 729c 553e
00000260: e8ad 8c3e 7a7a 473d d76f 263d 133f fb3d
00000270: ef82 223e 3d8a 8f3d 4f8b 19be a832 8cbd
00000280: 18c1 d83d dda8 2fbe a8b4 2e3d bc1c a4bd
00000290: 3e06 8c3e c1da 52be 295b f63d a771 363e
000002a0: 6033 953c 3906 bbbc a8ea 813d 8e6c c63d
000002b0: 3117 903e e7b1 97bd 743a 2c3e 785e 623e
000002c0: 2ea3 3c3e 6311 5b3e 0431 133d 1fb8 12be
000002d0: 8f72 103b ca00 9f3e 7d64 d93d 15c3 723c
000002e0: 85ca 373e b6f5 983d 13e4 1fbe acb0 ecbd
000002f0: a635 81bd a639 dcbc 613d f83b aaab 06be
00000300: 41bd 84be e6bb ba3d 3308 a93d 6157 d63d
00000310: 8ff8 07be b475 d3bd ba78 11bd b76e bbbd
00000320: de19 3dbe 020f 1d3e 1588 3bbe a576 0dbe
00000330: fbf3 3ebb 092f 5fbe 32f0 fc3d d9b0 e2bb
00000340: c79a 7dbe 87bc f53d 5b6d dfbc f144 343d
00000350: 9d8d b73d d0fa 10be 456f 2fbe 2e87 a0bd
00000360: b0b7 20be 5b19 013d 91fa 3c3e fdf9 413e
00000370: 10fa a93d 11a9 993d 227f 23be 802f 03be
00000380: be57 dfbb 697e 83bd 97ff 0a3e fc4e 9fbd
00000390: 5712 35be 4b65 fdbd f486 5dbc 2618 adbd
000003a0: eee4 2e3d 4873 6e3e 23b1 edbd a933 a6be
000003b0: b089 c43d 3027 29be c937 a9bd 8e1b 40bd
000003c0: 98fd 21be 8731 18be 9a43 7fbd ab19 91be
000003d0: f8b7 65be 072c 3bbe a258 1cbb dbba 353d
000003e0: c4b5 503d 1571 483e 9515 0c3e 9aaa b23c
000003f0: 26b9 23be 19ef f63d 0056 8e3e 477a 03be

layers.1.bias f4 [128]
-0.17657591 0.010238539 -0.036009904 -0.10509105 -0.25448802 -0.04536749 -0.1379491 -0.27116784
0.066537514 -0.17925885 -0.11401363 -0.15890174 -0.42141595 0.038136177 -0.32100132 0.062730506
-0.45843863 -0.31657478 -0.109268084 -0.290871 0.03375571 0.118650585 -0.14370713 0.17990668
0.0021860667 -0.2600276 0.06437126 -0.010537434 -0.2522286 -0.043345306 -0.31389016 0.18973422
-0.080607034 -0.16100077 -0.13973662 -0.23420376 -0.09165128 0.084577695 -0.1371674 -0.042383295
-0.06319554 -0.18209082 -0.2682049 0.25464797 -0.041393112 -0.11324655 0.078353226 -0.15961431
-0.23713028 -0.14086936 -0.27894738 -0.043987323 -0.123674534 -0.3061735 -0.33137327 -0.023011804
-0.2300257 -0.28713387 -0.12200165 -0.17390129 -0.1324195 -0.035001174 -0.095403716 0.15190141
-0.010345621 -0.3470068 -0.1338898 -0.06792355 -0.3557523 -0.01823196 -0.0060827225 0.013038344
-0.2234816 -0.11016031 -0.025141371 -0.109658614 -0.14145003 0.091089405 -0.19260153 -0.04796632
-0.13061792 -0.030286223 -0.069787584 0.13493605 0.041192874 -0.05889244 -0.26487806 -0.08518444
-0.012670318 -0.0042576506 -0.15754755 0.08969325 -0.21588431 -0.26693055 -0.18041193 0.043721873
-0.1906472 -0.14876936 -0.073955655 -0.19356945 -0.024703221 -0.18877321 0.10107771 -0.17576505
-0.082263835 -0.026418522 -0.14800893 0.18682097 -0.1033101 -0.2043729 0.0914672 -0.1238786
-0.27307478 -0.084811695 0.0223293 0.121090956 0.03225147 0.09876487 -0.30904016 0.1572233
-0.15993637 -0.09905891 -0.19724879 -0.0355684 -0.05591502 -0.14610922 -0.12995122 0.0685956
00000000: 51d0 34be 8cbf 273c 1f7f 13bd fa39 d7bd
00000010: 414c 82be 43d3 39bd 8742 0dbe 83d6 8abe
00000020: d244 883d a28f 37be fa7f e9bd 23b7 22be
00000030: d5c3 d7be ae34 1c3d 495a a4be da78 803d
00000040: 78b8 eabe 1716 a2be f2c7 dfbd 0bed 94be
00000050: 6d43 0a3d 14ff f23d f627 13be 7539 383e
00000060: 1d44 0f3b 5622 85be 14d5 833d 34a5 2cbc
00000070: 1b24 81be d98a 31bd 36b6 a0be b049 423e
00000080: 4d15 a5bd 63dd 24be 1e17 0fbe 1cd3 6fbe
00000090: abb3 bbbd 1237 ad3d 9c75 0cbe 1b9a 2dbd
000000a0: aa6c 81bd 0476 3abe 2752 89be 3861 823e
000000b0: d38b 29bd cfed e7bd a877 a03d ef71 23be
000000c0: 48d2 72be 0f40 10be 31d2 8ebe 0d2c 34bd
000000d0: 1349 fdbd c6c2 9cbe c2a9 a9be 4083 bcbc
000000e0: db8b 6bbe 3603 93be 00dc f9bd 2e13 32be
000000f0: fa98 07be 645d 0fbd 0663 c3bd 0b8c 1b3e
00000100: ae80 29bc e0aa b1be 681a 09be 811b 8bbd
00000110: 2a25 b6be 315b 95bc 9351 c7bb c79e 553c
00000120: 5cd8 64be bb9b e1bd 47f5 cdbc b294 e0bd
00000130: 47d8 10be 158d ba3d 5639 45be 5578 44bd
00000140: b4c0 05be d01a f8bc cbec 8ebd ad2c 0a3e
00000150: dcb9 283d 3339 71bd 199e 87be 2e75 aebd
00000160: 2a97 4fbc c383 8bbb 2554 21be 18b1 b73d
00000170: c710 5dbe 1fab 88be e8bd 38be b515 333d
00000180: 0539 43be ff56 18be 1076 97bd 1237 46be
00000190: 695e cabc c44d 41be d501 cf3d c1fb 33be
000001a0: f179 a8bd a86b d8bc a78f 17be ff4d 3f3e
000001b0: 3f94 d3bd 2147 51be 2853 bb3d 10b4 fdbd
000001c0: 75d0 8bbe c1b1 adbd f0eb b63c 89fe f73d
000001d0: 1e1a 043d 3c45 ca3d 833a 9ebe 25ff 203e
000001e0: 5cc6 23be 66df cabd 96fb 49be 2cb0 11bd
000001f0: 2607 65bd a89d 15be ef11 05be da7b 8c3d

layers.3.weight f4 [128]
0.7691584 0.97983545 1.1442734 0.8381641 1.1700886 1.0980908 0.9139971 1.0378691
0.9833152 0.97565585 0.9839429 1.1877347 1.4953473 0.80261534 0.75634587 1.0698144
0.68214256 1.126673 1.0749673 0.8237881 0.9159227 0.478001 0.98986346 1.2722446
0.71139073 0.93539566 1.1180217 1.519605 1.041868 0.8751805 0.9202393 0.91732556
0.91378284 0.84055126 0.988432 0.70292985 1.4942257 0.7863521 1.0313767 1.050429
0.6878344 0.7761106 0.8882632 1.2641574 0.9748651 1.0419061 0.58088857 0.8846979
0.6683005 0.91891885 0.9927349 0.5136315 0.5632309 1.4088864 1.3026316 0.9601992
0.46104825 0.76499087 0.6576889 0.6975712 1.3479924 0.9222918 0.83109564 0.8753556
0.6726846 1.5718299 0.79358226 0.9508616 1.0862653 1.0996175 1.0968395 1.2504461
0.9449525 0.96560174 1.1209412 1.1681606 0.9883887 1.4103673 0.9970238 0.7811467
1.0701298 0.6390124 0.5102353 0.95491403 1.0814233 0.86885655 0.92386806 0.9863365
0.6373963 1.2401146 0.5356365 0.76323557 0.6009934 0.82633024 0.7733231 0.97132236
1.1310399 0.6406303 0.7525025 0.9977279 1.0006751 0.70935154 1.1100187 1.2455429
0.6741757 0.65756583 0.5631506 1.2235022 1.1327907 0.6008583 0.9695958 1.4650394
0.6249411 1.0010277 1.0113542 0.81807274 0.9232553 0.9564796 0.8417897 0.7841649
0.71872306 1.0465 0.7283557 0.80269545 1.022066 1.0871418 0.45888245 1.0697205
00000000: 91e7 443f 7fd6 7a3f 8d77 923f ec91 563f
00000010: 77c5 953f 3d8e 8c3f b7fb 693f e5d8 843f
00000020: 8cba 7b3f 95c4 793f afe3 7b3f b107 983f
00000030: 8a67 bf3f 3378 4d3f e29f 413f aeef 883f
00000040: e5a0 2e3f d236 903f 8798 893f c7e3 523f
00000050: e979 6a3f 8cbc f43e b167 7d3f e9d8 a23f
00000060: b41d 363f 1776 6f3f 561b 8f3f 6b82 c23f
00000070: ee5b 853f d40b 603f ce94 6b3f d9d5 6a3f
00000080: aced 693f 5e2e 573f e109 7d3f 36f3 333f
00000090: ca42 bf3f 5f4e 493f 2704 843f 7574 863f
000000a0: ea15 303f 2faf 463f 3865 633f e9cf a13f
000000b0: c290 793f 2e5d 853f 1db5 143f 907b 623f
000000c0: be15 2b3f 443e 6b3f e023 7e3f 5b7d 033f
000000d0: e62f 103f 6456 b43f a2bc a63f 9dcf 753f
000000e0: 840e ec3e 71d6 433f 4d5e 283f 0794 323f
000000f0: 048b ac3f 511b 6c3f afc2 543f 4e17 603f
00000100: 0f35 2c3f b931 c93f 3528 4b3f aa6b 733f
00000110: be0a 8b3f 44c0 8c3f 3d65 8c3f 9e0e a03f
00000120: 68e8 713f ad31 773f 007b 8f3f 4986 953f
00000130: 0b07 7d3f ea86 b43f f43c 7f3f 3bf9 473f
00000140: 03fa 883f 5196 233f c89e 023f 3f75 743f
00000150: 146c 8a3f 626d 5e3f 9e82 6c3f 8d80 7c3f
00000160: 672c 233f 13bc 9e3f 791f 093f 6863 433f
00000170: b4da 193f 618a 533f 81f8 453f 95a8 783f
00000180: eac5 903f 5900 243f 01a4 403f 186b 7f3f
00000190: 1f16 803f 1098 353f 1815 8e3f f36d 9f3f
000001a0: c796 2c3f 3c56 283f a32a 103f b89b 9c3f
000001b0: 49ff 903f d9d1 193f 6e37 783f 6986 bb3f
000001c0: 24fc 1f3f ad21 803f 0e74 813f 376d 513f
000001d0: 765a 6c3f d9db 743f 887f 573f 08bf 483f
000001e0: 3cfe 373f b6f3 853f 8575 3a3f 737d 4d3f
000001f0: 0fd3 823f 7627 8b3f a4f2 ea3e 9aec 883f

layers.3.bias f4 [128]
-0.20962916 -0.48491046 0.14848796 -0.12977959 0.14523098 -0.06767593 0.046575207 -0.10321011
0.38748935 -0.08792109 0.058966506 0.016907802 0.14689068 -0.0815026 -0.28256062 -0.08150937
-0.31383616 -0.123403154 -0.1989259 -0.21648014 -0.035558425 -0.3302388 -0.09607981 0.20377703
0.1802733 0.3759544 -0.04985422 -0.03711654 -0.10037487 0.091239125 -0.31680647 0.51938105
-0.11658421 0.09100878 0.14886604 -0.01372159 0.106954716 -0.0679978 -0.044225413 0.18429047
-0.21356335 -0.32089144 -0.038038418 0.005919803 -0.09524437 0.30185276 -0.050362498 -0.04446828
0.15026267 -0.2276378 -0.25832903 0.111732766 -0.2769011 0.053897474 0.09675091 -0.10048435
0.15609975 -0.1340623 0.27518204 -0.0136680035 0.38462925 0.20728736 0.085886195 -0.046963852
0.10247972 0.043387815 -4.967681e-05 -0.5767449 -0.093027934 -0.002987339 0.05357786 -0.12888405
-0.006129687 0.022609873 0.08133932 -0.27834952 -0.23593308 0.19369553 -0.23636782 -0.07186207
-0.0051586484 -0.04893322 -0.32095566 0.034529783 -0.00713253 0.24963865 -0.23070987 -0.17154941
-0.123023026 -0.1730573 -0.12574007 -0.10202335 -0.059878908 0.069932625 -0.11146314 0.29100135
-0.15476087 -0.28964424 -0.33796483 -0.1392269 0.26173952 0.512239 0.06510047 0.1425015
0.32414973 -0.22215223 -0.06205954 0.237641 -0.03422035 -0.14405763 0.10045373 -0.01493107
0.32075125 -0.14910989 0.24331775 -0.15508556 0.1740408 0.31454435 -0.040851552 0.107577756
-0.16682898 0.15032335 0.1449033 -0.042343114 0.44510734 -0.0913309 0.11678273 -0.016667558
00000000: 07a9 56be 2f46 f8be 3a0d 183e f1e4 04be
00000010: 6eb7 143e ae99 8abd a5c5 3e3d d25f d3bd
00000020: 0165 c63e f90f b4bd dd86 713d 3b82 8a3c
00000030: 836a 163e d6ea a6bd c9ab 90be 62ee a6bd
00000040: 22af a0be cbba fcbd 3bb3 4bbe f8ac 5dbe
00000050: b6a5 11bd 0f15 a9be 7ec5 c4bd edaa 503e
00000060: 9099 383e 187d c03e f033 4cbd 8307 18bd
00000070: 5791 cdbd 94db ba3d 7534 a2be 28f6 043f
00000080: b4c3 eebd d062 ba3d 5770 183e 85d0 60bc
00000090: 130b db3d 6e42 8bbd b525 35bd a4b6 3c3e
000000a0: 5ab0 5abe e24b a4be 2cce 1bbd e8fa c13b
000000b0: 7b0f c3bd 728c 9a3e e848 4ebd 5f24 36bd
000000c0: 75de 193e e219 69be b443 84be 26d4 e43d
000000d0: fbc5 8dbe 99c3 5c3d 5725 c63d bdca cdbd
000000e0: 9dd8 1f3e a147 09be a9e4 8c3e c3ef 5fbc
000000f0: 20ee c43e 2343 543e 1ae5 af3d 2b5d 40bd
00000100: e3e0 d13d 6cb7 313d 125c 50b8 8ea5 13bf
00000110: 6e85 bebd 3bc7 43bb 7574 5b3d 2efa 03be
00000120: 8bdb c8bb 5738 b93c 3b95 a63d d483 8ebe
00000130: 7198 71be 1f58 463e 680a 72be 6c2c 93bd
00000140: e109 a9bb 336e 48bd 4d54 a4be 1a6f 0d3d
00000150: 00b8 e9bb 46a1 7f3e 353f 6cbe a6aa 2fbe
00000160: 7ff3 fbbd ef35 31be 01c2 00be 9ef1 d0bd
00000170: 9643 75bd d638 8f3d c946 e4bd 21fe 943e
00000180: a279 1ebe 404c 94be ba09 adbe 7f91 0ebe
00000190: b902 863e 1822 033f 6553 853d eaeb 113e
000001a0: f4f6 a53e e07b 63be 2532 7ebd 2a58 733e
000001b0: a32a 0cbd d883 13be afba cd3d 72a1 74bc
000001c0: 8239 a43e 43b0 18be 4a28 793e c0ce 1ebe
000001d0: c037 323e f50b a13e f553 27bd ba51 dc3d
000001e0: 37d5 2abe 5dee 193e 8861 143e f96f 2dbd
000001f0: 1ce5 e33e b20b bbbd c92b ef3d 678a 88bc
